…
2021-11-18 21:06:03 | INFO | fairseq.tasks.mem_dep | | [input] mem5 dictionary: 264 types
2021-11-18 21:06:03 | INFO | fairseq.tasks.mem_dep | | [input] mem6 dictionary: 264 types
2021-11-18 21:06:03 | INFO | fairseq.tasks.mem_dep | | [input] mem7 dictionary: 264 types
2021-11-18 21:06:03 | INFO | fairseq.tasks.mem_dep | | [input] mem8 dictionary: 264 types
| [inst_pair] dictionary: 8 types
2021-11-18 21:06:04 | INFO | fairseq_cli.train | XdepModel(
  (encoder): Encoder(
    (sentence_encoder): XdepTransformerEncoder(
      (dropout_module): FairseqDropout()
      (embed_tokens): ModuleDict(
        (static): Embedding(321, 768, padding_idx=1)
        (op_pos_emb): Embedding(16, 768, padding_idx=1)
        (mem_mask): Embedding(8, 768, padding_idx=1)
      )
      (byte_combine): ByteCombineCNN(
        (convolutions): ModuleList(
          (0): Conv1d(1, 4, kernel_size=(1,), stride=(1,))
          (1): Conv1d(1, 8, kernel_size=(2,), stride=(1,))
          (2): Conv1d(1, 12, kernel_size=(3,), stride=(1,))
          (3): Conv1d(1, 16, kernel_size=(4,), stride=(1,))
          (4): Conv1d(1, 20, kernel_size=(5,), stride=(1,))
          (5): Conv1d(1, 24, kernel_size=(6,), stride=(1,))
          (6): Conv1d(1, 28, kernel_size=(7,), stride=(1,))
        )
        (highway): Highway(
          (layers): ModuleList(
            (0): Linear(in_features=112, out_features=224, bias=True)
            (1): Linear(in_features=112, out_features=224, bias=True)
          )
          (activation): ReLU()
        )
        (projection): Linear(in_features=112, out_features=768, bias=True)
      )
      (layernorm_embedding): FusedLayerNorm(torch.Size([768]), eps=1e-05, elementwise_affine=True)
      (layers): ModuleList(
        (0): TransformerEncoderLayerBase(
          (self_attn): MultiheadAttention(
            (dropout_module): FairseqDropout()
            (k_proj): Linear(in_features=768, out_features=768, bias=True)
            (v_proj): Linear(in_features=768, out_features=768, bias=True)
            (q_proj): Linear(in_features=768, out_features=768, bias=True)
            (out_proj): Linear(in_features=768, out_features=768, bias=True)
          )
          (self_attn_layer_norm): FusedLayerNorm(torch.Size([768]), eps=1e-05, elementwise_affine=True)
          (dropout_module): FairseqDropout()
          (activation_dropout_module): FairseqDropout()
          (fc1): Linear(in_features=768, out_features=3072, bias=True)
          (fc2): Linear(in_features=3072, out_features=768, bias=True)
          (final_layer_norm): FusedLayerNorm(torch.Size([768]), eps=1e-05, elementwise_affine=True)
        )
        (1): TransformerEncoderLayerBase(
          (self_attn): MultiheadAttention(
            (dropout_module): FairseqDropout()
            (k_proj): Linear(in_features=768, out_features=768, bias=True)
            (v_proj): Linear(in_features=768, out_features=768, bias=True)
            (q_proj): Linear(in_features=768, out_features=768, bias=True)
            (out_proj): Linear(in_features=768, out_features=768, bias=True)
          )
          (self_attn_layer_norm): FusedLayerNorm(torch.Size([768]), eps=1e-05, elementwise_affine=True)
          (dropout_module): FairseqDropout()
          (activation_dropout_module): FairseqDropout()
          (fc1): Linear(in_features=768, out_features=3072, bias=True)
          (fc2): Linear(in_features=3072, out_features=768, bias=True)
          (final_layer_norm): FusedLayerNorm(torch.Size([768]), eps=1e-05, elementwise_affine=True)
        )
        (2): TransformerEncoderLayerBase(
          (self_attn): MultiheadAttention(
            (dropout_module): FairseqDropout()
            (k_proj): Linear(in_features=768, out_features=768, bias=True)
            (v_proj): Linear(in_features=768, out_features=768, bias=True)
            (q_proj): Linear(in_features=768, out_features=768, bias=True)
            (out_proj): Linear(in_features=768, out_features=768, bias=True)
          )
          (self_attn_layer_norm): FusedLayerNorm(torch.Size([768]), eps=1e-05, elementwise_affine=True)
          (dropout_module): FairseqDropout()
          (activation_dropout_module): FairseqDropout()
          (fc1): Linear(in_features=768, out_features=3072, bias=True)
          (fc2): Linear(in_features=3072, out_features=768, bias=True)
          (final_layer_norm): FusedLayerNorm(torch.Size([768]), eps=1e-05, elementwise_affine=True)
        )
        (3): TransformerEncoderLayerBase(
          (self_attn): MultiheadAttention(
            (dropout_module): FairseqDropout()
            (k_proj): Linear(in_features=768, out_features=768, bias=True)
            (v_proj): Linear(in_features=768, out_features=768, bias=True)
            (q_proj): Linear(in_features=768, out_features=768, bias=True)
            (out_proj): Linear(in_features=768, out_features=768, bias=True)
          )
          (self_attn_layer_norm): FusedLayerNorm(torch.Size([768]), eps=1e-05, elementwise_affine=True)
          (dropout_module): FairseqDropout()
          (activation_dropout_module): FairseqDropout()
          (fc1): Linear(in_features=768, out_features=3072, bias=True)
          (fc2): Linear(in_features=3072, out_features=768, bias=True)
          (final_layer_norm): FusedLayerNorm(torch.Size([768]), eps=1e-05, elementwise_affine=True)
        )
        (4): TransformerEncoderLayerBase(
          (self_attn): MultiheadAttention(
            (dropout_module): FairseqDropout()
            (k_proj): Linear(in_features=768, out_features=768, bias=True)
            (v_proj): Linear(in_features=768, out_features=768, bias=True)
            (q_proj): Linear(in_features=768, out_features=768, bias=True)
            (out_proj): Linear(in_features=768, out_features=768, bias=True)
          )
          (self_attn_layer_norm): FusedLayerNorm(torch.Size([768]), eps=1e-05, elementwise_affine=True)
          (dropout_module): FairseqDropout()
          (activation_dropout_module): FairseqDropout()
          (fc1): Linear(in_features=768, out_features=3072, bias=True)
          (fc2): Linear(in_features=3072, out_features=768, bias=True)
          (final_layer_norm): FusedLayerNorm(torch.Size([768]), eps=1e-05, elementwise_affine=True)
        )
        (5): TransformerEncoderLayerBase(
          (self_attn): MultiheadAttention(
            (dropout_module): FairseqDropout()
            (k_proj): Linear(in_features=768, out_features=768, bias=True)
            (v_proj): Linear(in_features=768, out_features=768, bias=True)
            (q_proj): Linear(in_features=768, out_features=768, bias=True)
            (out_proj): Linear(in_features=768, out_features=768, bias=True)
          )
          (self_attn_layer_norm): FusedLayerNorm(torch.Size([768]), eps=1e-05, elementwise_affine=True)
          (dropout_module): FairseqDropout()
          (activation_dropout_module): FairseqDropout()
          (fc1): Linear(in_features=768, out_features=3072, bias=True)
          (fc2): Linear(in_features=3072, out_features=768, bias=True)
          (final_layer_norm): FusedLayerNorm(torch.Size([768]), eps=1e-05, elementwise_affine=True)
        )
        (6): TransformerEncoderLayerBase(
          (self_attn): MultiheadAttention(
            (dropout_module): FairseqDropout()
            (k_proj): Linear(in_features=768, out_features=768, bias=True)
            (v_proj): Linear(in_features=768, out_features=768, bias=True)
            (q_proj): Linear(in_features=768, out_features=768, bias=True)
            (out_proj): Linear(in_features=768, out_features=768, bias=True)
          )
          (self_attn_layer_norm): FusedLayerNorm(torch.Size([768]), eps=1e-05, elementwise_affine=True)
          (dropout_module): FairseqDropout()
          (activation_dropout_module): FairseqDropout()
          (fc1): Linear(in_features=768, out_features=3072, bias=True)
          (fc2): Linear(in_features=3072, out_features=768, bias=True)
          (final_layer_norm): FusedLayerNorm(torch.Size([768]), eps=1e-05, elementwise_affine=True)
        )
        (7): TransformerEncoderLayerBase(
          (self_attn): MultiheadAttention(
            (dropout_module): FairseqDropout()
            (k_proj): Linear(in_features=768, out_features=768, bias=True)
            (v_proj): Linear(in_features=768, out_features=768, bias=True)
            (q_proj): Linear(in_features=768, out_features=768, bias=True)
            (out_proj): Linear(in_features=768, out_features=768, bias=True)
          )
          (self_attn_layer_norm): FusedLayerNorm(torch.Size([768]), eps=1e-05, elementwise_affine=True)
          (dropout_module): FairseqDropout()
          (activation_dropout_module): FairseqDropout()
          (fc1): Linear(in_features=768, out_features=3072, bias=True)
          (fc2): Linear(in_features=3072, out_features=768, bias=True)
          (final_layer_norm): FusedLayerNorm(torch.Size([768]), eps=1e-05, elementwise_affine=True)
        )
      )
    )
    (lm_head_code): XdepLMHeadClassification(
      (dense): Linear(in_features=768, out_features=768, bias=True)
      (layer_norm): FusedLayerNorm(torch.Size([768]), eps=1e-05, elementwise_affine=True)
    )
    (lm_head_value): XdepLMHeadRegression(
      (dense): Linear(in_features=768, out_features=768, bias=True)
      (layer_norm): FusedLayerNorm(torch.Size([768]), eps=1e-05, elementwise_affine=True)
    )
  )
  (classification_heads): ModuleDict(
    (mem_dep): XdepEmbeddingPairLocalHead(
      (dense): Linear(in_features=3840, out_features=768, bias=True)
      (dropout): Dropout(p=0.1, inplace=False)
      (out_proj): Linear(in_features=768, out_features=2, bias=True)
    )
  )
)
2021-11-18 21:06:04 | INFO | fairseq_cli.train | task: MemDepTask
2021-11-18 21:06:04 | INFO | fairseq_cli.train | model: XdepModel
2021-11-18 21:06:04 | INFO | fairseq_cli.train | criterion: MemDepCriterion
2021-11-18 21:06:04 | INFO | fairseq_cli.train | num. shared model params: 61,249,707 (num. trained: 61,249,707)
2021-11-18 21:06:04 | INFO | fairseq_cli.train | num. expert model params: 0 (num. trained: 0)
…
